cifar_cnn.pt (torch, 265031 bytes, 24 tensors)

classifier.conv1.weight f4 [6, 3, 5, 5]
000000 f8 34 0c 3e 29 6c c9 3d b1 c8 bb 3d 88 b7 59 3e
       0.13692081 0.09835083 0.09169138 0.21261418
000010 bf c2 ab 3d 0f 39 9d 3d 98 de 27 3d 28 60 f0 3d
       0.08386754 0.07676899 0.040983766 0.1173709
000020 a6 eb 03 3e a7 e7 a5 3d a5 00 22 3d 9a 2e 12 bd
       0.12882861 0.08100825 0.039551396 -0.035688974
000030 7e c7 de ba f8 0f 22 bd 60 bf 51 bc 24 0f 2d bc
       -0.0016996709 -0.03956601 -0.012801975 -0.010562692
000040 a7 14 01 bb 4a 30 b8 bd 0e 40 bf 3d 24 4c 28 bc
       -0.0019696148 -0.089935854 0.09338389 -0.01027206
000050 d9 88 8b bd 4a 1f 95 bd a0 21 c5 bd 1e 7f aa bd
       -0.06813211 -0.072813585 -0.09625554 -0.08325027
000060 a8 7e 2a be b9 0e 1a be 90 a3 28 bd dd 3a 16 be
       -0.16649878 -0.15044679 -0.04117161 -0.14670892
000070 c4 12 ae be 81 59 04 be 3e a6 b9 bd 1d 8a 63 3d
       -0.33998692 -0.12924768 -0.09064911 0.055551637
000080 ec 82 df bc e4 95 55 be 71 b6 81 be ea 41 57 bd
       -0.027284108 -0.2085796 -0.25334504 -0.052553095
000090 d9 fc 7a 3d 46 a0 c0 bd ad 16 94 bc a2 ab 31 be
       0.06127629 -0.0940557 -0.018077219 -0.17350629
0000a0 2e 15 19 3e 13 9c 5a bc 5d e2 71 3d cd fa 44 3c
       0.14949486 -0.013342875 0.059053767 0.012022686
0000b0 25 a4 18 be 68 96 c2 3d d7 4f 0d 3c 3e a2 37 3d
       -0.14906366 0.09501344 0.008624992 0.04483246
0000c0 81 50 af bc da e0 e5 bd c1 e1 16 be ba 2e 98 bd
       -0.021400692 -0.11224528 -0.14734556 -0.074307874
0000d0 22 02 2d bc 33 29 eb bd 5b 92 8a 3d a8 c6 d8 3c
       -0.0105595905 -0.114824675 0.06766196 0.026461914
0000e0 d5 b0 bd ba 18 ee 98 bd 52 2f a4 3d de 38 35 3c
       -0.0014472256 -0.07467288 0.08016838 0.0110609215
0000f0 f2 3a 9c bd 6f 91 ce 3d 40 b6 f7 3d 29 d2 2c 3e
       -0.076284304 0.10086333 0.12095308 0.16877045
000100 f8 24 90 bd e8 7e cc bc 19 f0 85 3d e2 8b 81 3d
       -0.07038301 -0.024962857 0.065399356 0.06325509
000110 fb e6 74 3c 40 2c 67 bd 33 6a dc 3b 30 c4 de 3c
       0.014947648 -0.056438684 0.006726527 0.027193159
000120 ec 29 a2 3d 46 b6 75 3d 76 fe 2c 3d f2 02 26 bc
       0.07918152 0.059988283 0.04223486 -0.010132538
000130 cd 5e ee 3c 60 cc 66 3d 5a f6 ca bd 32 95 43 3d
       0.029097939 0.05634725 -0.09910269 0.047749706
000140 b8 84 c3 bd eb b3 fe bd 83 94 24 bd 2c 3d 9c bd
       -0.095467985 -0.124366604 -0.040180694 -0.07628855
000150 f5 51 8a bc 52 52 09 be 24 92 32 be a9 3b 82 3b
       -0.016884783 -0.13410309 -0.1743856 0.003974397
000160 90 2d 99 bd 70 9d ec bc 1b c0 63 3c fd c6 f6 bd
       -0.074793935 -0.028883666 0.013900782 -0.12049673
000170 37 7e 8b 3c 50 e2 69 3d 49 dc 32 bd c4 3f 54 bd
       0.017027957 0.057100594 -0.04366711 -0.051818624
000180 76 13 d2 3c 33 e6 fe 3c 44 96 7a bd 8b b4 c0 bd
       0.025644045 0.031115627 -0.06117846 -0.09409436
000190 f6 a1 1e 3d 24 c5 3e bd 10 50 91 3d fb 53 a1 3d
       0.038728677 -0.046574727 0.07095349 0.07877346
0001a0 16 91 93 bd 78 f1 eb bd a4 76 a8 3d a9 c3 ce bb
       -0.07205407 -0.11520666 0.08225754 -0.0063099456
0001b0 49 90 6e 3d 4e 73 38 bd e4 b7 94 bb 2e dc 6a 3d
       0.05824307 -0.045031838 -0.004538523 0.057338886
0001c0 5a 6e a6 3d 18 88 c7 bd 17 c9 93 bd 67 8f 92 3d
       0.08126517 -0.09742755 -0.07216089 0.07156258
0001d0 0d b4 99 3d bd 8e aa 3d 7c 01 7c bd e5 18 8e bd
       0.07505045 0.083280064 -0.061524853 -0.06938342
0001e0 76 65 fb bd 9e 94 13 bd 4b e9 ba 3d 3d 61 0a be
       -0.122752115 -0.036030404 0.09126528 -0.13513656
0001f0 7c 84 59 bd f7 e3 af bc 79 b8 3f bd 57 79 f6 3c
       -0.053104863 -0.021471007 -0.046806786 0.030087156
000200 1a 46 da 3d 03 2c b2 3d 3a e3 c2 3c 81 c0 ac 3d
       0.10657902 0.08699801 0.02378999 0.08435155
000210 96 bf 11 3e 9c 72 be 3d a8 80 a3 3c b6 f4 1f 3e
       0.1423324 0.09299204 0.019958809 0.15620694
000220 c0 07 13 3e 81 11 a1 3d 86 a1 77 bc 00 b2 fa bd
       0.14358425 0.07864667 -0.015114194 -0.12240982
000230 6d 92 20 3d 91 7d 93 3d 7e 8c 75 3c 23 87 0d 3e
       0.039202143 0.07201684 0.014987109 0.13821082
000240 c9 b4 ca 3d b9 7c bb 3c d0 0d ae 3d 1b 13 a1 3d
       0.09897763 0.02288662 0.08498728 0.07864972
000250 5b 55 7f 3d 93 17 c7 bb f9 68 9b bd ba 1d b3 bb
       0.06233726 -0.0060758083 -0.07588381 -0.00546619
000260 ef bd 02 be 23 d2 ca bd 72 56 2b be ed 37 a6 bd
       -0.12767766 -0.09903362 -0.16732195 -0.08116136
000270 15 4d cf bd e5 4f 12 be ee 63 1a bd 0f fe df bd
       -0.10122124 -0.1428829 -0.037692957 -0.1093713
000280 fd 19 f9 bd c7 91 d0 3d 0d 46 12 3e 3f 38 8a 3d
       -0.1216316 0.10184055 0.14284535 0.06749009
000290 81 b9 1b bd 5b c0 bb 3c 8e 6f 22 3c 09 c1 e8 3d
       -0.038018707 0.02291887 0.009914292 0.113649435
0002a0 70 99 fc bb cb 3b 74 bd f2 53 04 3e 24 9d 00 3e
       -0.007708721 -0.059627336 0.12922648 0.12559944
0002b0 bb 84 22 3e 0c 4a 42 3e 21 74 74 3e 7a d6 ff 3d
       0.15870945 0.18973559 0.23872425 0.1249208
0002c0 c9 c3 d9 ba 44 6b 5c bb ae 98 54 bd 53 5c 16 3e
       -0.0016614135 -0.0033633271 -0.05190342 0.14683656
0002d0 66 fc 02 3b 28 fb 62 bc 78 d5 fb bd c3 fd a2 bd
       0.0019986867 -0.013853826 -0.12296575 -0.079585575
0002e0 00 97 e6 bd 3f 7c 27 3d 18 c7 e9 bd f3 91 98 bd
       -0.1125927 0.040889975 -0.11414927 -0.074497126
0002f0 89 b0 89 bd c0 12 99 bd fb fa 9c bd 02 bd f1 bd
       -0.067231245 -0.074742794 -0.07665058 -0.118036285
000300 05 91 70 bd 7d 03 01 bd 03 cd 84 bc 8e 6c ac bd
       -0.05873205 -0.031497467 -0.016211038 -0.08419143
000310 c0 f6 d1 bc c2 d7 90 3d a1 88 d4 3d de 09 11 be
       -0.025630355 0.070724025 0.103776224 -0.1416392
000320 31 f2 95 3d f1 de 2b be 36 99 b9 3d 8b e7 47 bd
       0.07321585 -0.16784264 0.09062426 -0.0488048
000330 bf 99 25 3d f3 9e 09 3e d9 4d 52 3d f9 57 72 3b
       0.040429827 0.1343954 0.051343773 0.0036978705
000340 12 05 0a bd 84 e9 b3 bc ba 56 e1 3d 21 8c 09 3e
       -0.03369624 -0.021961935 0.1100287 0.13432361
000350 7e e3 cf bc fa 32 6b 3d bb aa c3 3d 0d e6 fd 3d
       -0.025377031 0.057421662 0.09554049 0.12397394
000360 01 c3 1c 3e 3a 42 61 3c 1a a6 0c bc 2a 8c 0e 3d
       0.15308763 0.0137487 -0.008584524 0.03480164
000370 0f 80 bb bc c2 0f d3 3d 92 3f 38 bd 57 ee 7c bd
       -0.022888212 0.1030574 -0.0449825 -0.061750736
000380 fa be 03 3c 02 f3 3d 3d 2e 83 8e bb 6d c9 d2 3d
       0.008041138 0.04637433 -0.004349134 0.10292325
000390 5d 5c 72 3d 42 cf 83 3d c5 c0 28 bd d8 3c bb bd
       0.059170116 0.06436016 -0.041199464 -0.091424644
0003a0 a2 96 3b 3e 3f 80 17 3c fd df 9f bd ed 28 87 bd
       0.1831918 0.009246885 -0.07806394 -0.06599603
0003b0 f7 c3 b0 bd 2d 5b ec 3d e2 b4 cb 3d f0 b1 cc bd
       -0.08631127 0.11540828 0.0994661 -0.099948764
0003c0 e1 82 af bd 1a dd 28 3d 1c df 9a 3d fa b3 0b bd
       -0.08569885 0.041226484 0.07562086 -0.034107186
0003d0 e4 64 86 3c 0c b1 8e 3d 49 95 a5 bc 3f 5d f1 bd
       0.01640553 0.06967363 -0.020212786 -0.117853634
0003e0 82 62 23 be 98 da 2f 3e 0b cf c2 3d d7 4c 0d be
       -0.15955546 0.1717323 0.095121466 -0.13798843
0003f0 62 34 81 bd 56 ea f4 bc 72 d3 3f bd 16 1e 1e be
       -0.06308819 -0.029896896 -0.04683251 -0.15441164

classifier.conv1.bias f4 [6]
000000 40 48 1c bf 37 eb a7 be 8a 54 4b bf c9 ba bd be
       -0.61047745 -0.32796642 -0.7942587 -0.37056568
000010 ef 7f 2d bf 96 cf c4 be
       -0.67773336 -0.38439626

classifier.conv2.weight f4 [16, 6, 5, 5]
000000 97 a5 e5 3d c9 9d b7 bd e6 d5 d0 3c 88 ad 90 bd
       0.112132244 -0.08965642 0.02549262 -0.070643485
000010 6b 3e c0 3d cf 80 10 be 23 82 49 bc d7 e0 3c 3d
       0.09386905 -0.14111637 -0.012299093 0.04611286
000020 df 60 c1 bd 8d b1 a2 3d 12 1e 2c bd 62 8f fb 3b
       -0.09442305 0.079440214 -0.042020865 0.0076770047
000030 48 23 33 3d c8 4b 0b bd 74 43 30 3c 23 be 24 be
       0.04373482 -0.034007818 0.01075827 -0.16088156
000040 24 5b 31 3d d5 35 a6 3c 73 ce 57 3d b0 17 12 bc
       0.04329981 0.020289341 0.05268712 -0.00891678
000050 97 53 b5 bd d5 e5 aa 3d 35 0f 95 3d b0 8c 26 3d
       -0.08853834 0.08344618 0.07278291 0.040661514
000060 e3 77 bd bc f2 e5 bf be 9b 0a 55 be 35 51 62 be
       -0.023128456 -0.37480122 -0.20804827 -0.2210129
000070 40 69 09 be ae e4 2d be 00 bf 30 be 93 d3 9b 3d
       -0.13419056 -0.16981766 -0.1726036 0.07608714
000080 57 4f d5 bd 80 89 95 be 33 60 10 be 9d b9 33 bd
       -0.104155235 -0.29206467 -0.14099197 -0.043878186
000090 30 79 9b 3d f6 0b 3e be 57 2a 41 be 9e 54 4e be
       0.07591474 -0.1855925 -0.18863808 -0.20149466
0000a0 b2 42 68 3d 05 09 b1 bd b3 5c 4a be c9 bf 4c bd
       0.05670423 -0.086442985 -0.19761924 -0.049987588
0000b0 43 d8 86 bd d6 22 b6 bd fa df 1a be 6f 41 17 be
       -0.065842174 -0.08893363 -0.15124503 -0.14771055
0000c0 ef 2e 44 bd 3f 92 68 bd 6c 87 b1 bc 1e 59 ef 3c
       -0.047896322 -0.056780096 -0.02167102 0.0292173
0000d0 b7 cb 2a bd 15 a7 62 bd 63 d6 62 3c 7b 2a db bd
       -0.041698184 -0.055335123 0.013845059 -0.10701462
0000e0 8f 87 21 be ce c7 48 bc 6f 32 48 3e bf 9d 0f 3e
       -0.15774368 -0.012254668 0.19550489 0.14025019
0000f0 1c ea 34 be 6e be 34 be 6c 7a 25 bd 3d ee a8 3d
       -0.1766743 -0.17650768 -0.040399954 0.08248565
000100 d1 f5 90 3d 6c f6 45 be b7 d9 9b bc 0e 1b f6 3c
       0.07078136 -0.19332284 -0.019024713 0.030042198
000110 b6 65 14 bd 63 67 df 3d 51 fb 9f bc 96 aa 51 bd
       -0.03622981 0.10908391 -0.019529017 -0.051188074
000120 08 a9 14 bd 8c 06 32 bd f1 80 54 3e 7a f5 b0 bc
       -0.036294013 -0.043463275 0.20752312 -0.021601427
000130 b1 9a 62 bd 89 59 ae 3d b4 23 dc 3a ad cb 0e be
       -0.055323306 0.08513171 0.0016795308 -0.13944884
000140 2a 58 59 bd 8e c2 30 bd 87 18 16 3e 99 0e 03 bd
       -0.053062595 -0.04315429 0.14657794 -0.031996343
000150 a4 77 ce ba 16 49 46 bc 3e d6 e4 bd 76 72 47 3c
       -0.0015752208 -0.012102386 -0.11173676 0.012173286
000160 d0 fc 11 be dd 5b 40 3d 84 7d ec b9 3c dd 2c 3e
       -0.14256597 0.046962608 -0.00045106944 0.16881269
000170 b9 ea aa be c2 e0 85 bd 86 4a 6c bb 32 cc e8 3c
       -0.33382204 -0.0653701 -0.0036055162 0.02841768
000180 78 6d 0f 3e 31 dd 39 be bd 3d 6b be 42 83 25 3e
       0.14006603 -0.18150784 -0.2297277 0.16163352
000190 45 41 cf 3c 78 f8 aa ba b8 c5 9d bd 00 40 8e b7
       0.025299678 -0.001304402 -0.077037275 -1.6957521e-05
0001a0 8a eb 7d 3d 57 53 ad bd 3e 3d 88 bd 75 b6 54 be
       0.061992206 -0.084631614 -0.06652306 -0.20772727
0001b0 60 08 d6 bd bb 7c 86 bd 0e 2f 92 bd 11 19 cc bc
       -0.10450816 -0.06566759 -0.07137881 -0.024914296
0001c0 5c 8d da bd d0 31 a0 3b 63 76 97 3d 62 02 bd 3a
       -0.106714934 0.0048887506 0.07395627 0.0014420266
0001d0 db 38 7b be 74 ee f6 bd 9d 68 ec 3d 2e 5f ad 3d
       -0.24533407 -0.120572 0.11543391 0.0846542
0001e0 72 f8 14 be 4b ce 48 bd 53 a3 96 3d 7a 6e ee ba
       -0.145479 -0.04902486 0.073553704 -0.0018190884
0001f0 95 57 d0 3c eb 65 82 bd 5a 09 08 bd a2 30 3a be
       0.025432387 -0.063670956 -0.033212043 -0.18182614
000200 3a a3 2c be c9 f9 35 be 17 02 44 be 38 76 d5 3d
       -0.16859141 -0.17771067 -0.19141422 0.10422939
000210 64 f5 8a bd 0c 6b fd bd 87 29 ac bd b0 73 58 bd
       -0.06785086 -0.12373933 -0.08406358 -0.052844703
000220 46 11 1e bd 35 93 ad bd 56 1e 1b be 85 63 95 3d
       -0.038590692 -0.08475343 -0.15148291 0.072943725
000230 81 d5 4b bd da c6 86 be 06 3f bd bb 4a bb 9f 3d
       -0.04976416 -0.26323587 -0.0057753352 0.077993944
000240 2c c7 a1 3a 8b 83 b6 bd 04 74 c1 3d e3 2d 0f 3d
       0.0012342683 -0.089118086 0.09445956 0.03495587
000250 ba 8d 1c 3c 36 0b 4a be da 4e 2f 3e 4e 5f 13 3e
       0.009555275 -0.19730839 0.17119923 0.14391825
000260 d7 e1 ed bc 0d 09 a6 3e 14 b1 b8 3d 41 33 de bd
       -0.029038353 0.3242878 0.0901815 -0.1084962
000270 40 bb e5 bb 71 2d 3c bd 4c 9b 05 3e 0a 66 42 3d
       -0.0070108473 -0.045941774 0.13047522 0.047460593
000280 88 f1 0d bd bd 93 80 3d e5 c0 54 3d 2e 18 37 be
       -0.03465417 0.06278179 0.05194177 -0.17880318
000290 24 fb f1 3c 1d 80 7f 3d 43 d0 bf 3d bc 63 ae bd
       0.029538698 0.062378038 0.09365895 -0.085151166
0002a0 c4 68 f3 bd 75 5d 3e 3e 3c 5d 08 3e 48 c5 97 bc
       -0.11885217 0.18590339 0.13316816 -0.018526688
0002b0 bd 99 c1 bd 14 fd 1d 3c 04 10 d2 3d cc 3f 2e be
       -0.094531514 0.009642858 0.10256961 -0.17016524
0002c0 2b 40 a7 bd 5d 19 56 bd 9d 80 24 bd 70 59 ed bd
       -0.08166536 -0.052270282 -0.040161718 -0.115893245
0002d0 d3 15 98 bd 6a 65 46 bd 29 9c b5 bc 79 63 40 bd
       -0.07426038 -0.04843656 -0.02216919 -0.046969865
0002e0 9f fc 1b bd 3c f3 85 be 19 fe 67 bd 57 38 b3 bb
       -0.038082715 -0.26162136 -0.05663881 -0.0054693627
0002f0 83 2a 35 3c 2d 37 ba 3d 34 48 e6 bc fb 34 3a bc
       0.011057499 0.09092555 -0.028110601 -0.011365171
000300 48 20 44 be f1 38 86 bb 84 05 bf bd eb e3 db 3d
       -0.1915294 -0.0040961434 -0.09327224 0.10736831
000310 16 1d 99 be b7 7c 58 be c5 32 8b bd e2 38 5d bd
       -0.29905003 -0.21141325 -0.06796793 -0.054009326
000320 65 92 20 3d 61 93 26 bd 96 b0 49 be 64 5d d8 3d
       0.039202113 -0.040667895 -0.19696268 0.10564688
000330 a1 74 ab 3c 49 21 46 3d c5 1f 37 be a4 1d c4 be
       0.020929636 0.048371587 -0.17883213 -0.38303864
000340 33 05 a6 3d bf 13 ac 3d fc 23 35 3e 37 de 1d be
       0.081064604 0.08402204 0.17689508 -0.154168
000350 07 1f af be 95 1d 97 be 34 6c 28 be 9c 7f 6f 3d
       -0.3420336 -0.29514757 -0.16447526 0.058471307
000360 96 24 1f be 66 50 e5 bd 6e 91 82 be 65 d4 d1 bd
       -0.155413 -0.111969754 -0.2550158 -0.10245589
000370 40 10 5e 3d f2 c4 a4 bc 6d 3a 05 bd 09 b0 31 be
       0.054214716 -0.020113442 -0.032526422 -0.17352308
000380 80 4b 11 bd 10 ee bb 3e ab 60 8a 3d ed 71 86 3d
       -0.035472393 0.36705065 0.06756719 0.06564698
000390 b4 40 13 be 52 10 b3 bd 6c 98 01 3e 8b ba 6e 3b
       -0.14380151 -0.08743347 0.126558 0.0036427106
0003a0 fb 9d e8 bd 3f cc 28 be 8f b0 36 3e 4f a4 38 be
       -0.113582574 -0.16484164 0.1784079 -0.18031429
0003b0 12 d5 0d 3e bf 97 26 be e1 07 9c 3c 5d 42 0d 3b
       0.13850811 -0.16268824 0.019046726 0.0021554448
0003c0 7e 7b 72 bd e7 fc ae 3d c6 c7 b2 3d 12 ba 40 3e
       -0.059199803 0.08544331 0.0872951 0.1882098
0003d0 94 39 da 3c 28 78 40 be ce 33 4a be 4c 21 d1 3d
       0.026638784 -0.18795836 -0.19746324 0.10211429
0003e0 d5 30 00 3d 31 1c c3 3d 42 f6 86 bc 07 77 8a 3d
       0.03129657 0.095268615 -0.016474847 0.06760984
0003f0 9a e9 50 3d ca 6e 77 bc a8 91 9a 3d ae 74 db bd
       0.05100403 -0.015102098 0.07547313 -0.10715614

classifier.conv2.bias f4 [16]
000000 9d bc 1f 3d 7f ec 27 bd 03 0d 2f 3e ae 76 97 be
       0.038998235 -0.040997025 0.17094807 -0.29582733
000010 bd fa c7 3d 39 e2 1e 3e 34 27 0b be 30 5e 92 bd
       0.097646214 0.15515985 -0.13589174 -0.07146871
000020 87 1e ac be 8e 73 1a be 80 1f af bd 3a 5c 07 be
       -0.3361704 -0.15083143 -0.0855093 -0.13218775
000030 34 1e 53 bd 4d d2 fb 3c 7b bc d3 3d 7f 4d 09 3e
       -0.051542476 0.030739928 0.10338684 0.13408469

classifier.fc1.weight f4 [120, 400]
000000 61 7d 54 3c 92 7a d5 bd 4f a7 b8 3d 08 d3 5c 3d
       0.012969346 -0.10423769 0.090162866 0.053912193
000010 a5 a6 fc 3c aa 2b e0 bb 6e 81 55 3d 68 6e 93 bc
       0.030841181 -0.0068411427 0.052125387 -0.017996982
000020 3f 10 e1 3c 83 1b 6f bd 40 6b 97 bd cb 9b 58 3d
       0.027473567 -0.058375847 -0.07393503 0.05288295
000030 dc 1b c6 3d 4e 0f 89 3d 43 4a b0 bd fb 73 0b be
       0.096732825 0.06692372 -0.08607914 -0.13618462
000040 53 75 c4 3d c4 fb 2b 3e a1 b4 f2 bc fa 2a ae bd
       0.0959269 0.1679526 -0.029627146 -0.08504291
000050 86 aa 87 bd 9c 82 13 3e 2b 48 3b 3e 0f ff 63 3d
       -0.06624322 0.14405292 0.18289249 0.055663165
000060 f3 95 6b bd 0d ce 84 bc 36 38 de 3d 2f 3f 91 3c
       -0.05751605 -0.016211534 0.10850565 0.017730324
000070 eb f9 00 3e 38 af 37 bd 9b 82 84 bd 41 ae b7 3d
       0.12595336 -0.044844836 -0.064702235 0.08968783
000080 2b 21 02 3d b1 4a 9b 3c 4b c3 99 bb 40 f0 0b 38
       0.031769913 0.018956514 -0.00469247 3.3363933e-05
000090 c7 83 1e 3c 6e 83 9c 3c 77 13 11 3d f0 4c 0c be
       0.009674973 0.01910564 0.035418954 -0.13701224
0000a0 72 ae b1 bc d2 b1 c4 bd fe e4 0c bd 25 63 05 be
       -0.021689627 -0.09604229 -0.03439807 -0.13026102
0000b0 41 39 24 bd de 25 20 bd 67 10 ec bc ea 83 5b bd
       -0.040093664 -0.039098613 -0.028816415 -0.0535926
0000c0 5b 19 27 bd c8 9e 48 3d 80 05 27 3e 7d 3f 33 bd
       -0.040795665 0.04897955 0.16310692 -0.04376172
0000d0 fc e3 dc 3d ee 86 ad 3d 7f 40 11 3e 78 96 ae 3d
       0.10785672 0.084730014 0.1418476 0.085247934
0000e0 0c 86 b7 3d 17 61 14 3d c4 77 20 bd ae f7 12 bc
       0.08961114 0.036225405 -0.039176717 -0.008970184
0000f0 40 7e 92 3c 18 35 32 3d 76 52 86 3b 76 14 0c 3d
       0.017882466 0.043507665 0.0040991856 0.0341992
000100 36 c7 b2 3c e6 4f f6 3c 1b 66 81 bc 3f 4c 55 3d
       0.021823507 0.030067395 -0.015795758 0.052074667
000110 e8 ce 5e bd 17 e5 0a bd ad 7a ab 3c 5f 15 65 3d
       -0.05439654 -0.033909883 0.02093252 0.055928584
000120 a2 5d 5d 3d 98 0b 74 bd 7c 1c ab bd 7b 56 e2 3c
       0.054044373 -0.05958137 -0.08355042 0.027629128
000130 9d a8 a4 bc 8e 4d f5 bc 5d 8f 01 bd e1 57 d5 bc
       -0.020099932 -0.029944208 -0.031630863 -0.02604288
000140 b6 46 32 3d 1d 9a 05 bc d5 74 fe bb a5 4f c7 3c
       0.043524466 -0.008154419 -0.0077653923 0.02432997
000150 1e f8 16 bd 30 13 87 bd 8d dd 13 bd 15 6d bd 3d
       -0.036857717 -0.065954566 -0.03609996 0.09249321
000160 e3 51 e1 3d 82 da 60 bd 3b 2a 62 3d 8c 83 ed 3a
       0.11001947 -0.054895885 0.055216055 0.0018120869
000170 76 bd 6c 3c 5a 81 ba bc a1 d8 18 bd 50 ae a5 bc
       0.014449468 -0.022766758 -0.03731597 -0.02022472
000180 d0 a0 86 bd d0 9e e4 bb 42 cf 2b 3c af 4b 1d bd
       -0.06573641 -0.0069769397 0.010486426 -0.038402256
000190 50 0d 8c 3b b7 ae 72 bd d9 cf 51 bd 2c cf 96 bd
       0.004274048 -0.059248652 -0.05122361 -0.07363734
0001a0 39 d5 95 bd 4a 65 f7 3b 22 81 e2 bd 67 de 00 3c
       -0.073160596 0.0075499164 -0.110597864 0.007865525
0001b0 00 21 20 be 4d a0 fb bc 10 11 69 39 31 1b b9 bd
       -0.15637589 -0.030716086 0.00022226968 -0.090383895
0001c0 e2 1d 9b bd b2 42 04 be 4e 25 fe 3c 80 2a 10 bd
       -0.07574059 -0.12916067 0.031023648 -0.03519678
0001d0 82 f5 be 3b d5 b7 28 bd cd 2b a5 3c 4b 20 c9 bc
       0.0058276067 -0.04119094 0.020162487 -0.024551531
0001e0 87 02 a4 3d 3e f4 56 3d f8 83 d3 bc a4 98 63 3c
       0.080082946 0.05247902 -0.025819764 0.013891373
0001f0 d8 e7 1b 3e c9 70 33 bb c7 09 7d bd df e8 6e bd
       0.1522516 -0.0027380458 -0.061776903 -0.058327552
000200 5a 59 0a bd 8b a4 40 bd 04 e4 51 3c 72 d4 6b bb
       -0.03377662 -0.04703192 0.012810711 -0.0035984782
000210 90 d0 3d bc 58 6c 91 3d 71 b0 dc bc 88 fb ad bb
       -0.01158537 0.07100743 -0.026939603 -0.005309526
000220 e5 99 93 bd 6e dd aa 3a 27 78 27 bd 67 7c ca bc
       -0.072070874 0.0013035962 -0.04088607 -0.024717523
000230 39 dd 96 bd ff a3 77 bd 06 11 97 bc 7c e8 05 bd
       -0.073664136 -0.060459133 -0.018440735 -0.032692418
000240 07 e8 1f 3d 01 f9 9c bd a1 7f 41 bd 95 b5 a3 bd
       0.039039638 -0.07664681 -0.047240857 -0.079936184
000250 54 d6 cc bd 8d f6 1e bd 6a dc 4e bd f0 77 69 3d
       -0.10001817 -0.038809348 -0.050503172 0.056999147
000260 7d f1 1b be 97 76 9f bd 2a 2a db 3b 39 45 0b 3c
       -0.15228839 -0.07786291 0.006688376 0.008500391
000270 10 51 b8 bc 4b fb 80 bd fa b2 45 3d 8e a9 1f 3e
       -0.022499591 -0.0629793 0.04826639 0.15592024
000280 0a 6f 1d 3d 64 c5 b5 bd 3a a6 a6 3c 01 2c 1e 3d
       0.038435973 -0.0887554 0.020342935 0.038616184
000290 e2 71 0b bd 5e 3a 31 be 90 8e c3 bd 32 04 04 bd
       -0.034044154 -0.17307422 -0.09548676 -0.032230563
0002a0 06 3c fb bd cf af b2 bd 44 30 06 bc ac 10 61 ba
       -0.12267308 -0.08724939 -0.008190218 -0.0008585553
0002b0 22 71 61 bd 74 d9 0a be 76 e1 de bd 59 53 f5 bc
       -0.055039532 -0.13559514 -0.10882847 -0.02994697
0002c0 80 5d a1 39 e9 af ee bc 9e dd d4 bd a7 2e c7 3c
       0.00030777976 -0.029136615 -0.103938326 0.024314238
0002d0 ca c9 33 3d bb 61 50 bd 9f 8d 4a bc 51 89 81 bd
       0.043893613 -0.050874453 -0.012362867 -0.06325019
0002e0 2d dd 6c bc 64 ac 1e 3d ad 5f b9 3d d6 23 95 bd
       -0.014457029 0.038738623 0.09051452 -0.07282226
0002f0 4d 46 96 bd 3a bf 2c bd a2 e0 07 bd d3 67 c6 3d
       -0.073376276 -0.042174555 -0.03317321 0.09687772
000300 79 0f cd 3d be a5 c6 3b 4b 86 5b bc 5f 80 99 bc
       0.10012717 0.0060622385 -0.013398717 -0.01873797
000310 19 85 1d 3d 6e 75 39 3e 06 d9 38 3c 75 cd 02 bd
       0.03845701 0.18111202 0.011282211 -0.03193422
000320 f7 8d 82 bb 74 d6 95 bd b8 2b eb bc 9c d8 af 3b
       -0.0039842087 -0.07316294 -0.02870737 0.005366398
000330 5b d8 ef bc b2 8a 29 3d d5 20 aa 3c 9c 9b c1 bc
       -0.029277971 0.041392036 0.020767609 -0.02363377
000340 f9 fb 97 bc 46 a0 09 bd f1 3e c0 3c 92 bf d7 3c
       -0.018552767 -0.033600114 0.023467513 0.026336465
000350 4d 75 e9 3c 3e f9 61 bc dc 68 21 3d 27 be 01 bd
       0.028498316 -0.013792334 0.039406642 -0.031675484
000360 90 1d 25 bd 4a 9a d2 3a 52 ff 8c bd ea d7 94 3c
       -0.040311396 0.001606771 -0.06884636 0.018169362
000370 aa 9a 02 bd 42 f3 80 3b ab ac 45 3c e0 9b 59 bc
       -0.03188578 0.0039352486 0.012065093 -0.013281792
000380 9c c2 d2 3d 1e 5e 3a bd 9b a3 35 bd ed 9a 16 3d
       0.10291025 -0.045499913 -0.04434548 0.036768842
000390 7b 23 53 bc 42 16 3a bd d2 24 6b bc 90 93 07 3d
       -0.012886877 -0.045431383 -0.01435204 0.03309971
0003a0 01 18 f7 bb 14 73 ba 3c ab 48 f7 3c 9b f1 4f bc
       -0.0075407033 0.022759952 0.030186018 -0.012691881
0003b0 89 68 d5 3c 8b 63 5d 3c 8b 3e 1d bd 02 87 70 bc
       0.026050823 0.013512502 -0.038389724 -0.014680626
0003c0 2f 15 be 3c 3e 46 a2 3c 1d 72 7c 3b c9 b4 1f bc
       0.02320346 0.019808885 0.0038520165 -0.009747692
0003d0 f7 2f 2a bd 99 b2 ac bc 13 cf 09 3d c8 70 a8 bb
       -0.04154965 -0.021081256 0.033644747 -0.0051403977
0003e0 21 11 02 bd 1a af 44 3b 76 e9 b1 bd 02 ab db bc
       -0.031754617 0.0030011595 -0.08687107 -0.026814941
0003f0 a5 39 cf 3c 88 54 6d bd 6a 7a c6 bd d7 ed f0 bd
       0.025296042 -0.057941943 -0.096913174 -0.11764114

classifier.fc1.bias f4 [120]
000000 c0 36 c2 be 1d 21 7a bd 80 7d 19 bf 62 82 fb be
       -0.37932396 -0.061066736 -0.5995712 -0.49122912
000010 9c a3 95 bd 15 cf dd be 00 e9 1c bf 1c da 53 bd
       -0.07306597 -0.43322054 -0.6129303 -0.051721677
000020 01 11 94 bc ad ef db bd df 4f 5b be 1e 1a 12 bf
       -0.018074514 -0.10739074 -0.21417187 -0.570711
000030 72 d6 88 be d1 0b a5 bd 19 c3 bc bc 31 21 10 be
       -0.2672611 -0.080588944 -0.023042249 -0.14075162
000040 9a 87 e7 bd 88 b7 1c bf 6d 0e 06 bf b1 91 7c be
       -0.11305161 -0.61217546 -0.5236576 -0.24664952
000050 55 6e 41 bd 59 69 69 bd e7 1c a7 bd 02 71 6b 3e
       -0.04722436 -0.056985233 -0.081598096 0.22992328
000060 6d ed 89 be 95 f0 a7 bc ef 75 59 be c4 78 b7 be
       -0.26938954 -0.02050046 -0.21236394 -0.35834324
000070 6c c3 66 be bc b0 8d be 36 c6 4b be d7 e8 04 bf
       -0.22535485 -0.276739 -0.1989983 -0.51917785
000080 37 29 dd bd a3 8d 16 be 08 b8 b3 be 1d 0f 95 be
       -0.10798877 -0.14702468 -0.35101342 -0.29113093
000090 d9 eb 04 bf 2f 51 34 bc 2a c8 0a be 2d ac 83 be
       -0.51922375 -0.011005684 -0.13552919 -0.25717297
0000a0 2b c0 00 bf 08 b5 7d bd 1a 71 f2 bd 7d c7 53 bd
       -0.50293225 -0.061940223 -0.11837979 -0.05170392
0000b0 d3 d8 e6 bd c7 80 13 be 49 ee 9f be fa ba be bd
       -0.11271825 -0.14404593 -0.31236485 -0.09313007
0000c0 b6 98 8d be e0 5d a2 be 2a fc 4a be a4 5a 03 bf
       -0.27655572 -0.31712246 -0.19822755 -0.5131018
0000d0 f3 32 00 bf bf d0 9d be 41 61 80 be 80 97 ab bc
       -0.5007774 -0.30823323 -0.250742 -0.020946264
0000e0 82 18 cc be ac fd e8 bd b2 24 bf be 7c 84 58 be
       -0.39862448 -0.11376509 -0.37332684 -0.21144289
0000f0 90 ec c4 bc 65 00 ab bd 83 bd 97 be a5 1d 07 be
       -0.024038583 -0.083496846 -0.29636773 -0.13194902
000100 69 d0 41 be 50 0e 19 be de 3f 77 3d b6 79 a2 3a
       -0.18927158 -0.14946866 0.060363643 0.0012395892
000110 7a 77 5a bd e5 39 d5 be d5 5c 7d be 32 d0 66 be
       -0.053336598 -0.41645733 -0.24742444 -0.22540358
000120 1d e6 1a be ba 18 6a 3f 26 ad c5 be 60 89 2f bd
       -0.15126844 0.9144398 -0.38608664 -0.04285562
000130 f7 21 7d be 26 b8 a5 be 16 0d 47 be 3c 0e b4 bd
       -0.24719988 -0.32367057 -0.19438586 -0.087917775
000140 a6 5a 54 bd 4a 3d 32 bd ec bb c0 bd 1d 58 83 bd
       -0.05184426 -0.04351548 -0.09410843 -0.06413291
000150 7c 2b 52 bd 0d a5 86 bd 69 95 8c be ae 1c b3 bd
       -0.051311 -0.0657445 -0.2745774 -0.087457046
000160 93 c8 73 bc b0 65 b3 be b2 87 14 be 45 f4 c1 be
       -0.014879364 -0.3503852 -0.14504889 -0.37881675
000170 ab 0b d4 bd 15 d9 03 bf 5c de bc be 72 e0 a5 be
       -0.10353788 -0.51503116 -0.36888397 -0.323978
000180 08 79 02 bf d5 00 2a be 16 cb 24 bd 66 33 ef be
       -0.5096593 -0.1660188 -0.04023274 -0.467189
000190 7e 1d 8b be fc 3e 4d be 08 37 8a be c2 87 9f be
       -0.27170938 -0.20043558 -0.2699511 -0.31158262
0001a0 20 a9 1f ba c5 25 a0 bd 2a 66 8b be 98 c5 77 be
       -0.000609057 -0.07819704 -0.27226382 -0.2419647
0001b0 9d a2 7a bd c8 40 56 be 0e 0d 37 bd 4f 22 c1 bd
       -0.061190236 -0.2092315 -0.044690184 -0.09430372
0001c0 0c 98 6c bd 6b 78 59 bc c4 57 f0 be c8 7a 9e bd
       -0.05776219 -0.013273339 -0.4694196 -0.077382624
0001d0 70 0a 48 be 21 37 e0 bd cd e6 30 bd 7f be 1a be
       -0.19535232 -0.10948015 -0.04318886 -0.15111731

classifier.fc2.weight f4 [84, 120]
000000 97 9f c6 bd 1d 11 2a 3c ca 65 d4 bd bd 9a a6 3d
       -0.09698408 0.010380057 -0.10370977 0.08134983
000010 41 ec 5b 3d 44 ec 04 bd 06 e1 81 3b 26 c6 54 bd
       0.053692106 -0.032451883 0.0039635925 -0.05194678
000020 f9 71 4e 3d 03 80 b7 bc 8e 7d 1c 3b 22 21 10 bd
       0.05040166 -0.022399908 0.0023878547 -0.035187848
000030 1e ca 0f bc 99 35 8f bd 48 53 93 bc a3 e1 d7 3b
       -0.008776216 -0.06992645 -0.017984048 0.0065881773
000040 2b b6 3c 3d 77 56 be bd da 4e a3 3c bc 5b e1 3c
       0.046072166 -0.092938356 0.01993506 0.027509563
000050 0c 24 dc bb 72 ab 9d 3c 0d a6 9a bd 86 c2 75 bd
       -0.0067181643 0.01924679 -0.07551203 -0.059999965
000060 45 e5 6d bd 23 f6 3d bd 28 8c 53 3b d1 65 30 bd
       -0.058079977 -0.046377312 0.0032279585 -0.04306585
000070 bb d9 ba bd 9e 63 9d bd fc ff cf bc 6a 9d 48 3c
       -0.0912356 -0.07685016 -0.025390618 0.012244562
000080 f6 6c 9f 3d aa 5f 78 bd 01 ec 0b 3d c4 bc 42 3d
       0.077844545 -0.060638107 0.034160618 0.047543302
000090 0c ad 00 bd 9e 35 00 bd 24 86 d8 bd c5 bb 5a bc
       -0.03141503 -0.031301133 -0.1057246 -0.013350432
0000a0 0e 94 c5 bb e4 73 b1 bd ff d3 a8 3d 67 49 c5 bd
       -0.0060296124 -0.086646825 0.0824356 -0.09633141
0000b0 76 0c 4d bd 91 10 da 3b aa a5 90 3d 3f b1 9c bc
       -0.05006071 0.006654807 0.07062848 -0.019127486
0000c0 bf 8f 1b 3d 7f 1e ec bc fc 15 ec bb 59 57 34 bd
       0.037978884 -0.028823135 -0.007204769 -0.044028614
0000d0 10 a1 9a bd 43 47 f1 3c 29 0e 6f 3d 60 ab 88 3d
       -0.075502515 0.029452926 0.058363114 0.06673312
0000e0 94 14 7b bd 0a 37 a2 bc fc c7 72 3d 26 f5 35 3d
       -0.06129892 -0.019801635 0.05927275 0.044423245
0000f0 9d bf 34 3d bd cb 37 3b 84 d4 e9 3c de 6a a7 3d
       0.04412805 0.0028045021 0.028543718 0.0817468
000100 15 68 54 3c 84 83 01 bd e9 32 cb ba a3 a9 a2 bd
       0.012964268 -0.031619564 -0.0015502843 -0.07942512
000110 f9 c7 a4 bd 2c 7b f3 bc 03 25 56 bd 3f 6f 56 3d
       -0.08045954 -0.029721819 -0.05228139 0.052352186
000120 e4 e6 66 bd c8 25 99 bd 4b e1 8f bc 97 7f ee 3c
       -0.05637254 -0.07477909 -0.017563483 0.029113574
000130 2f 44 a0 bd 1f 3f d8 bd 70 02 97 bd 64 b1 c6 bc
       -0.07825505 -0.105589144 -0.07373512 -0.024254508
000140 4e 2f 2e 3d 81 c3 a9 3d 36 2e 40 bd f6 a7 87 3c
       0.042525582 0.082892425 -0.04691907 0.016559582
000150 08 94 0c bc 03 b6 a9 bd 72 29 eb bc 8d 05 86 bd
       -0.008580215 -0.08286669 -0.028706286 -0.065440275
000160 aa 5d 0d 3d 08 dc 7b 3d 99 94 b2 bd e8 69 c8 bd
       0.034513153 0.061489135 -0.08719749 -0.09785825
000170 07 ac 08 3c 3e 90 7c 3d 0e 1e 19 bd 30 7d ba bd
       0.008341796 0.061660998 -0.037382178 -0.09105909
000180 21 9d 53 bd 84 63 c3 bd e2 25 64 3b a7 b5 0c 3d
       -0.05166352 -0.095404655 0.003481262 0.034352925
000190 b6 4f 4b 3d c3 0b 5b bd 52 ff b3 3d 47 f6 ce 3c
       0.049636565 -0.053478014 0.08788933 0.025263919
0001a0 08 b3 d6 bc 84 6b 61 3d 1b 86 8e bd ba 7a 09 bd
       -0.026208416 0.055034176 -0.06959172 -0.033564307
0001b0 bc ae 9b 3d b2 cb e8 3b ce b2 2b bd 62 10 93 bd
       0.07601687 0.0071043605 -0.04191857 -0.07180859
0001c0 5f 36 6a bd 6a df 60 bd 79 6d 38 bd 8d 67 22 bd
       -0.05718076 -0.054900564 -0.045026276 -0.039649535
0001d0 29 28 ec 3c a7 22 88 3d 9f 73 df 3b 09 67 29 3d
       0.028827744 0.066472344 0.006819203 0.041358028
0001e0 1a 3b 8b 3d 46 7f d2 3c 91 94 88 3d a0 6f a6 bd
       0.06798382 0.025695454 0.06668962 -0.081267595
0001f0 37 2d 9e bd 16 99 70 3c d5 c1 bc bc d6 8f c2 bd
       -0.07723468 0.014684936 -0.023041645 -0.09500091
000200 9a 25 6a 3e f4 49 35 3d 4d ac f9 bc df 2b 07 3d
       0.22865906 0.04425998 -0.030477667 0.033000823
000210 7a c8 26 3d 81 66 5f bd 09 65 5b 3c 3c f3 40 3e
       0.040718533 -0.054541115 0.013390788 0.18842787
000220 9c 28 8c 3d b1 82 1b be db a2 92 bd a9 c9 71 bd
       0.06843683 -0.15186574 -0.071599685 -0.05903021
000230 f7 fb 8a bd 26 2f bb bc 73 dc 9e bc 15 1f 14 3b
       -0.0678634 -0.02284963 -0.019392228 0.0022601534
000240 36 80 a5 3e 7c ec f9 3c 4a a7 ee 3d d7 62 91 3d
       0.3232438 0.030508272 0.116530016 0.0709893
000250 65 14 85 bd e0 dd 11 be 89 c3 cd bd 7a e8 27 3d
       -0.064980306 -0.14244795 -0.10047061 0.04099319
000260 1e 23 32 3d 1d 37 4f bb 5e ca 7d 3b b8 af 45 bd
       0.04349052 -0.0031618543 0.0038725357 -0.04826328
000270 d9 12 97 3c 54 7e a5 bc 68 70 d1 bd 3d 83 aa 3c
       0.018441604 -0.02020184 -0.10226518 0.020814532
000280 d6 82 08 be 80 9d 10 3e c6 d8 b8 3d da f4 c8 bc
       -0.1333116 0.14122581 0.09025721 -0.024530817
000290 94 67 0a 3d c8 db 3c bd 16 ff ad 3d 6a 9c cd bd
       0.033790186 -0.046108037 0.084959194 -0.10039599
0002a0 b8 85 1b 3d 48 bc 42 bc bf 42 04 3b 66 0a be bd
       0.03796932 -0.01188571 0.0020181385 -0.09279327
0002b0 3a b9 83 be a3 9f 13 3e 17 ab 9d 3c b1 27 e7 3d
       -0.25727254 0.14416365 0.019246621 0.112868674
0002c0 ab 89 d8 3d 02 7d ce 3a a6 de 32 ba 67 08 d4 bd
       0.10573133 0.0015753808 -0.00068233383 -0.10353165
0002d0 0b 7f 83 3d a5 b8 ab bd 3f d0 c5 3d 2b 44 cf bc
       0.06420716 -0.083848275 0.096588604 -0.02530106
0002e0 c4 1a 11 3e cc e7 16 3d 1d 7d 9c 3e 55 db 87 3e
       0.14170367 0.036842152 0.30564204 0.26534525
0002f0 ed 2f ae bc 4e a3 fe 3c dc e5 89 3d 38 b8 83 bd
       -0.021263087 0.03108373 0.06733295 -0.06431621
000300 f8 a8 0b 3d 20 4a 9c bd a1 ae 82 3d 38 4c cd 3d
       0.034096688 -0.07631326 0.06380964 0.10024303
000310 87 16 ea bc 8d f3 67 3d 93 5c 7f 3d b0 5a ab 3d
       -0.028575195 0.056628752 0.062344145 0.08366907
000320 ec fd 57 bd f0 e1 0b bd f7 ca e7 bc d9 9b f6 3d
       -0.052732393 -0.034151018 -0.028295023 0.12041444
000330 2c db c4 bb d3 88 41 3e eb ab e4 3c 82 9c 79 3d
       -0.0060075726 0.1889985 0.027914008 0.060940273
000340 2f ff 85 3d 3f 8b 14 be f1 a7 ee 3d 36 97 3e bd
       0.06542813 -0.14506243 0.11653126 -0.046530925
000350 16 00 91 3d 57 26 7c bd 26 65 19 be 7b f6 92 3d
       0.070800945 -0.06156 -0.14979991 0.07175919
000360 98 4b 77 3d 30 1a b1 3d a1 0c 53 3c 1a c5 0c bd
       0.060374826 0.08647573 0.012881429 -0.03436766
000370 ce f5 80 3e d0 ef af bd 85 93 51 bd ec 85 6b 3e
       0.25187534 -0.085906625 -0.051166076 0.23000306
000380 a1 c6 9f 3d f7 42 db bb 50 cd 39 3e e9 85 93 bc
       0.07801557 -0.0066913324 0.18144727 -0.01800819
000390 4b 68 c6 bd ca 1c 06 be 87 42 a7 3d 5e 08 65 bb
       -0.09687861 -0.1309692 0.08166986 -0.0034947614
0003a0 97 30 8d 3d 58 8c 4e bd e1 c3 89 bd 6c 43 31 3d
       0.068940334 -0.05042681 -0.06726814 0.04327719
0003b0 ce 60 2f 3d da a6 5b bb d8 94 aa bd 1d 96 db bd
       0.04281693 -0.00335162 -0.08329171 -0.10721991
0003c0 7c 9e 61 3d 7d a4 3c bd fb 19 a5 bd 39 67 b4 bc
       0.055082783 -0.046055306 -0.08061596 -0.022021877
0003d0 c9 96 b7 bc 78 47 52 3d 81 c5 ae 3d 44 50 5f 3c
       -0.022410767 0.05133769 0.08533765 0.013629977
0003e0 9d fe 99 bc fc 92 04 bd 10 91 02 3d de 83 a7 3b
       -0.018798167 -0.032366738 0.031876624 0.0051121553
0003f0 8c 73 8c 3d d6 5f b7 bc c4 21 69 bd 6c 8d 0e 3c
       0.06857976 -0.022384565 -0.056916967 0.00870071

classifier.fc2.bias f4 [84]
000000 f7 a0 7c bc 06 85 af 3e 6f 86 a3 3c e2 ab e4 3d
       -0.015419236 0.34281176 0.019961564 0.111655965
000010 a9 e4 bb 3c de bf 05 3e 9f b1 63 be e1 12 84 bc
       0.022936182 0.13061473 -0.22235726 -0.016122283
000020 64 29 72 bd e6 41 58 3e db 11 65 be dd 37 22 be
       -0.059121504 0.21118888 -0.22370093 -0.15841623
000030 88 4b 36 3e 29 f6 99 bd c2 f3 a9 be 44 ec 29 be
       0.1780225 -0.075176544 -0.33193785 -0.16594034
000040 bd 6f c1 bd 99 b8 64 be 5c 2c af bd 1d ac c7 bc
       -0.094451405 -0.22336043 -0.08553383 -0.024374062
000050 5b e6 d6 bd 9f 5e 74 bd e8 34 d8 bd 86 b7 db 3c
       -0.104931556 -0.05966055 -0.10556966 0.02682091
000060 7b 3f 2a be 03 a1 fb bd da c9 a1 3d 24 4c 96 3d
       -0.16625778 -0.1228657 0.07899828 0.073387414
000070 9f e8 15 be f3 0c 29 be 9b 2e 4a 3e dd 0b 83 bd
       -0.14639519 -0.16508846 0.19744341 -0.06398747
000080 22 fc 11 be da b1 e2 bd 6b d0 f6 3e 96 8b 76 be
       -0.14256337 -0.11069079 0.48205885 -0.24076685
000090 58 c9 3a bc 53 e0 3f bd bf 35 d6 bd 4f 83 cf bd
       -0.011400543 -0.04684479 -0.1045947 -0.10132467
0000a0 83 17 7c be f5 27 ba bd 2b 82 9b bd d9 6e 4a 3d
       -0.24618344 -0.090896524 -0.07593187 0.04942212
0000b0 2a d0 2f be a8 b3 85 be cf e1 52 bd d2 29 81 3d
       -0.17169252 -0.2611363 -0.05148488 0.06306805
0000c0 11 b3 31 be 73 3f 30 be c6 ea a6 be cb 30 ab bc
       -0.17353465 -0.17211704 -0.32600993 -0.02089729
0000d0 30 ac 05 be 86 57 1a be 2c ac 84 bc 07 53 1f be
       -0.13053966 -0.1507245 -0.01619538 -0.15559016
0000e0 a0 ea 78 bd d0 14 af bc 6a 82 17 be c9 01 37 3c
       -0.06077063 -0.021372229 -0.14795843 0.011169859
0000f0 4e 58 ee bc a7 bd 74 bd 42 79 7a 3e 29 90 dd 3d
       -0.029094841 -0.05975118 0.24460319 0.10818512
000100 32 6d 5e 3e 07 92 b0 be 5b a6 3a be 00 57 89 be
       0.21721342 -0.3448641 -0.18227522 -0.26824188
000110 84 1e ce 3e 6f f6 a3 3e 73 5f ae be 7f 24 9c 3e
       0.40257657 0.3202395 -0.34057197 0.30496594
000120 26 dc f3 3d fe 45 2c 3e 9f 79 3b 3c df fd 1c be
       0.11907224 0.16823575 0.011442571 -0.15331219
000130 cb cd 47 be 91 29 1a be d4 e4 ee 3c d6 4d 73 bd
       -0.19512098 -0.15054919 0.029161848 -0.059400402
000140 c5 44 01 bd b8 35 82 bd 13 25 92 be ee 80 01 bd
       -0.031559724 -0.06357902 -0.2854391 -0.031617098

classifier.fc3.weight f4 [10, 84]
000000 16 1a fc bd 36 0b 71 bf 1d 36 82 3c 44 8d 1e c0
       -0.12309663 -0.9415773 0.015894944 -2.4773722
000010 8b 7e ca bf 47 bc e0 bf 91 9b 87 bf 01 e5 9f 3d
       -1.5819868 -1.7557458 -1.059435 0.07807351
000020 e0 b7 9d 3c 88 8c 13 bf 8b dc d4 bf 1f 22 4e bf
       0.019252717 -0.5763631 -1.6629804 -0.80520815
000030 51 a3 85 bf 54 98 94 be b4 1d 0d bf fa 3e b4 be
       -1.0440465 -0.29022467 -0.5512345 -0.35204297
000040 98 9e 38 bf 50 e1 5e bf 1d f1 ba be d4 24 2f bf
       -0.72116995 -0.8706255 -0.3651208 -0.6841557
000050 a1 d0 bb bf 05 58 8d bf 26 81 84 bf 1c 12 40 bf
       -1.4673043 -1.1042486 -1.0351913 -0.7502763
000060 7e 89 32 bf d1 b9 d3 be 4a 76 a4 bf 44 b3 2d bf
       -0.69741046 -0.41352704 -1.2848599 -0.6785166
000070 f5 90 ac bf a7 97 fd be 8e 52 11 bf 72 49 0f bf
       -1.3481737 -0.49529764 -0.56766593 -0.55971444
000080 5d bf 39 be 7c ab e5 bd 83 dd 02 c0 05 c0 a9 be
       -0.18139406 -0.11214349 -2.04477 -0.33154312
000090 66 02 29 3d 20 5a c3 bd b0 1a 79 bd b0 74 ab bf
       0.041262053 -0.09538674 -0.060816467 -1.3394985
0000a0 11 ce c4 bf d1 0f 98 bd 81 3e f3 bd 79 42 89 bf
       -1.5375386 -0.07424892 -0.11877156 -1.0723411
0000b0 b1 b0 98 bf 6f d1 f5 be 72 6f c1 be 85 3a 0d c0
       -1.1928922 -0.48011348 -0.3778034 -2.2066967
0000c0 27 96 b3 bf 8d 80 d4 be 76 5a a0 be 7a 3f d7 bd
       -1.4030198 -0.41504326 -0.31319016 -0.10510154
0000d0 4b c5 1e bf 4b b5 45 be db 6b 72 bf 57 bd aa bf
       -0.62019795 -0.19307439 -0.94695824 -1.3339032
0000e0 6e 26 f4 bb 78 9e de bd a0 d0 5c bf 95 fd d2 be
       -0.0074508702 -0.10870069 -0.86255836 -0.41209093
0000f0 ee d4 52 bf b8 01 d8 bd cc ca e9 be ac a3 81 bf
       -0.82356155 -0.10547203 -0.45662534 -1.0128074
000100 84 b8 10 c0 80 9e 39 bf 36 53 99 bf 2c 4c 28 bf
       -2.261262 -0.72507477 -1.1978519 -0.6574123
000110 ac a1 3c bf 48 fa 76 bf 84 59 b5 bf d4 0b ec be
       -0.7368419 -0.9647565 -1.4167943 -0.46102774
000120 b3 60 1b bf 58 fe a9 be 97 83 c8 be ae 2a 4d be
       -0.60694426 -0.3320186 -0.39162895 -0.20035812
000130 93 47 25 bf 90 39 8e be 01 19 08 c0 f4 ca 8d be
       -0.6456234 -0.27778292 -2.126526 -0.27693903
000140 f6 bc 7a bf d5 c6 35 3d 2a 54 a5 bf 4e 63 b4 bf
       -0.9794458 0.044379074 -1.291631 -1.4092805
000150 9f 0b 25 bd 60 82 0b c0 5a 8a 69 3d a0 d9 e8 bf
       -0.040294286 -2.1798325 0.057016708 -1.8191414
000160 fc b4 21 bf 49 1c 4d bf be 46 f8 be f1 42 f5 bd
       -0.63166785 -0.80121285 -0.48491472 -0.11975659
000170 95 34 e5 bd 27 e1 e6 bf 02 bc 93 bf c2 ae 2b be
       -0.1119167 -1.8037461 -1.154175 -0.16765884
000180 62 75 c6 bf ca 0c 9e be 30 d3 3f be 90 a2 72 be
       -1.5504572 -0.30869132 -0.18732905 -0.23694825
000190 83 bb 94 bf e8 30 1a be 19 2a 94 be b8 0e 71 bf
       -1.1619724 -0.15057719 -0.28938368 -0.94163084
0001a0 6b 5e e1 be 7c 93 97 bf fe f6 63 bf 89 d9 85 bf
       -0.44017348 -1.1841884 -0.89048755 -1.0457011
0001b0 e5 3a 0f bf 18 03 52 bf a2 da b5 bf c7 a2 b4 bf
       -0.5594924 -0.8203597 -1.4207346 -1.4112176
0001c0 85 fa 75 bf a3 7a e6 bd 5a ec c4 bf 21 7c b6 be
       -0.9608539 -0.1125386 -1.5384629 -0.35641578
0001d0 b1 40 e5 3c 93 86 07 be 72 8f 5d c0 10 30 41 be
       0.027984949 -0.1323493 -3.4618802 -0.1886599
0001e0 e0 d1 5c bc e1 18 49 bf 07 9d 55 be 74 06 e8 be
       -0.0134777725 -0.7855359 -0.20860682 -0.45317423
0001f0 b5 ec 13 bf 76 d4 80 3d 3e 4a 9e bd 36 61 12 bf
       -0.5778306 0.06290524 -0.07729004 -0.5717958
000200 5f d0 06 bf ce 68 e3 be 3f 68 e0 be 29 98 ff bf
       -0.526617 -0.44415897 -0.43829533 -1.996831
000210 34 79 e8 be d5 cd 06 bf 36 62 01 bf f6 eb 82 bd
       -0.4540497 -0.52657825 -0.50540483 -0.06392662
000220 08 0a bf bb ce 01 01 bf 43 05 24 bf 5f d7 aa be
       -0.0058300532 -0.5039338 -0.6407053 -0.3336744
000230 0f cd b8 be 8c cf 21 be 49 63 9d bf 27 4a 69 bf
       -0.36093947 -0.15801829 -1.2295924 -0.9112877
000240 dd b2 eb be 2a 24 6b bd 58 4b a5 bf 08 6b 84 bf
       -0.460349 -0.057407536 -1.2913618 -1.0345163
000250 33 0d 05 c0 94 3d cb bd 1e b9 0c c0 ad 77 d3 be
       -2.0789306 -0.099238545 -2.1987987 -0.41302243
000260 16 8a 2c bf d4 fc 03 c0 aa f4 bb bf d9 75 ee bf
       -0.673982 -2.0623064 -1.468404 -1.8629714
000270 fe 9e 39 bf e3 d8 6a bf 36 db f2 be 3b a9 67 be
       -0.7250823 -0.9173719 -0.4743287 -0.2262315
000280 dc 31 da be 80 29 24 bf b9 e7 91 bf d6 08 d1 bd
       -0.42616165 -0.64125824 -1.1398841 -0.102067634
000290 24 2c 02 bf 89 94 55 3d 36 e0 1e bf 57 8b bb bf
       -0.50848603 0.052143607 -0.6206087 -1.4651898
0002a0 22 a9 da bd dd 47 69 bf 28 05 9d bd bf 61 10 c0
       -0.10676791 -0.9112528 -0.07666999 -2.255966
0002b0 97 d8 7f bf 62 09 89 bf c1 17 8a bf 75 5b c4 bd
       -0.99939865 -1.0705988 -1.0788499 -0.095877565
0002c0 38 ea 5c bc d8 d7 41 bf 59 17 b4 bf 91 81 a9 bf
       -0.0134835765 -0.75719976 -1.4069625 -1.3242666
0002d0 37 63 02 c0 aa aa 95 be 98 23 55 bf 6c de b9 be
       -2.0373056 -0.2923177 -0.83257437 -0.36302507
0002e0 bb 71 94 bf 8e dd 3b bf ec 38 18 be 5a 5a 61 bf
       -1.1597208 -0.7338494 -0.14865464 -0.8802849
0002f0 9d 81 a1 bf 59 86 ac bf ad ff b9 bf 3e c7 79 bf
       -1.261768 -1.34785 -1.4531151 -0.97569644
000300 c4 e7 99 bf c6 96 91 bf 47 ef 70 bf 51 39 68 bf
       -1.2023854 -1.1374137 -0.9411511 -0.9071246
000310 6d 1b b7 bf 39 83 f3 be 96 9b 1e bf c7 4a 81 bf
       -1.4305245 -0.47561052 -0.61956155 -1.0100945
000320 bc 9d 6b be e0 2a 09 bd f1 d2 7b bf 55 af 5a bf
       -0.2300939 -0.033488154 -0.98368746 -0.85423785
000330 57 64 fc bd 9b 1c 56 bf 12 77 42 be 97 b4 2f c0
       -0.12323826 -0.836374 -0.18990734 -2.7453973
000340 2d 05 a7 bf b0 cc 0d be c9 df ae 3d 48 2a 00 c0
       -1.3048455 -0.13847613 0.085387774 -2.0025806
000350 58 2a 8a bf ee 84 2d bf 19 c7 ad be 90 31 8f bf
       -1.0794172 -0.6778096 -0.33940962 -1.1187
000360 fa 77 d1 bf dd 83 4d bf 7f dc 6d bf 1b 8a 4f bd
       -1.6364739 -0.8027933 -0.92914575 -0.050668817
000370 e2 f2 f4 be f1 a3 8d be 50 a0 39 bf 03 e0 9f bf
       -0.47841555 -0.2766414 -0.7251024 -1.2490238
000380 34 be 91 be 04 08 b7 bd 70 da 50 bf 53 90 0d bf
       -0.28465426 -0.08937076 -0.8158331 -0.55298346
000390 a5 d3 27 bf 9d 44 3f 3c 25 72 94 bf 3b da 98 bf
       -0.6555732 0.0116740735 -1.1597334 -1.1941599
0003a0 63 d7 81 bf b8 3b 8b bf 75 2f 87 bf 81 d7 b6 bf
       -1.0143856 -1.08776 -1.0561358 -1.4284517
0003b0 20 fe 72 bf 0f 9b 7e bf ba e5 17 c0 84 4e e3 bf
       -0.94919014 -0.9945535 -2.3733964 -1.7758336
0003c0 56 54 dc bf 4d 5d 3f bf 11 7d f6 be e1 e3 99 be
       -1.7213237 -0.7475174 -0.48142293 -0.3005667
0003d0 1b ad 17 bf b7 f6 cd be e5 c0 ca bf 02 00 75 be
       -0.59248513 -0.4022729 -1.5840117 -0.23925784
0003e0 8d fa e7 bf e5 54 26 3d 9d e0 94 bf 5e f2 4f bf
       -1.8123337 0.040608305 -1.1631047 -0.812292
0003f0 c2 50 81 bd dd a8 e9 bf a1 00 10 bd 1c ff 1f c0
       -0.063142315 -1.8254658 -0.03515685 -2.4999456

classifier.fc3.bias f4 [10]
000000 de cb 9e bf ca e2 9a bf 4c fe a0 bf 2f a8 74 bf
       -1.2405965 -1.210046 -1.2577605 -0.9556913
000010 5b 9f 67 bf c1 22 c8 bf 5a c6 3f bf ba 03 b4 bf
       -0.9047753 -1.5635606 -0.74912035 -1.4063637
000020 69 99 35 bf 1d c9 92 bf
       -0.7093721 -1.1467625

detector.conv1.weight f4 [6, 3, 3, 3]
000000 de 25 ce bd da 26 b4 3d e0 b0 e4 3b 10 43 0b bd
       -0.10065816 0.08796473 0.006979093 -0.033999503
000010 c0 d0 0a be e0 82 11 3d a4 c3 5d bd b0 49 5f bd
       -0.13556194 0.035525203 -0.054141656 -0.054513633
000020 3d 42 2b 3e 19 82 32 3e 6e ac d6 3d be 6e af bd
       0.16724487 0.17432441 0.10482107 -0.08566044
000030 87 28 e9 bd 66 5a b3 3d 20 a8 c6 3b fe e9 df 3d
       -0.11384683 0.087574765 0.0060625225 0.10933302
000040 ac 1f 44 3d 4d f1 2d be 78 fd 96 bd 22 4c b7 bd
       0.047881767 -0.1698658 -0.07372564 -0.08950068
000050 60 fd 43 bd 01 a7 a7 bd 7a fe dc 3d ef d1 0d 3e
       -0.04784906 -0.0818615 0.10790725 0.13849615
000060 7f f7 2d be 99 0e 0c 3e 0f 9f 11 3e 98 1e cd bc
       -0.16988944 0.13677444 0.14220832 -0.025039002
000070 16 0e a6 3d fb e3 1a 3e d0 9d d7 bd 76 64 19 be
       0.081081554 0.1512603 -0.10528147 -0.14979729
000080 20 7b 74 bd 00 23 52 3c c2 88 bb 3d 46 63 3e be
       -0.059687734 0.012825727 0.09156944 -0.18592557
000090 88 c4 5f bd 44 85 38 be 57 a4 2f 3e 35 3e 43 3e
       -0.054630786 -0.18019587 0.17152534 0.19066699
0000a0 a4 c1 50 3d c4 77 7c bd 0a 4f b5 bd 83 cd 3d 3e
       0.05096592 -0.061637655 -0.08852966 0.18535428
0000b0 c4 a7 16 bd ee 42 fb 3d ac bc 25 be cb d7 09 be
       -0.036781088 0.12268625 -0.16185254 -0.13461225
0000c0 30 20 fa bd 16 41 cd 3d fc 5b 17 be 8b 6b 10 3e
       -0.122131705 0.1002218 -0.14781183 0.14103524
0000d0 60 eb d8 bc 96 ce de 3d 28 5d 2a 3d 60 20 b1 3c
       -0.026479423 0.10879247 0.041592747 0.021621883
0000e0 6d 04 1d 3e 40 aa c6 bb ea 40 a6 bd 17 5c 2b be
       0.1533372 -0.006062776 -0.0811785 -0.16734348
0000f0 73 04 94 bd 30 55 5e 3c 1b ef e8 bd 26 39 93 3d
       -0.07227411 0.013570115 -0.11373731 0.071886346
000100 d7 1e 0a 3e 5c a6 40 bd 78 36 c0 bd fc dc 4f bd
       0.13488327 -0.047033653 -0.09385389 -0.050747856
000110 e2 75 98 3d ea 31 ef 3d 1a 87 b8 3d 01 64 17 3e
       0.07444359 0.11679442 0.090101436 0.14784242
000120 f4 1f 10 be e8 e3 04 3d be 04 e1 3d 0f 90 0d 3e
       -0.14074689 0.03244391 0.109872326 0.13824485
000130 e4 3f 1d 3d 74 41 74 3d a2 ac c8 3d ed 9c ed bd
       0.03839101 0.059632733 0.09798552 -0.11602197
000140 46 c1 bc 3d 18 72 d7 bc 18 1c 2b bd a0 11 4d 3c
       0.092165515 -0.026299521 -0.04177484 0.012516409
000150 6e c9 19 be fc 05 6a bd e4 bf 5c bd 4a 18 0b be
       -0.15018246 -0.057134613 -0.05389394 -0.13583484
000160 71 92 42 3e f0 84 08 3c 78 c6 87 bd 54 e2 5a 3d
       0.19001175 0.008332476 -0.06629652 0.0534385
000170 70 bf c1 3c 37 41 07 3e 41 cd 28 be ab d5 3d 3e
       0.023650855 0.13208471 -0.16484548 0.18538539
000180 00 bf 27 ba 2f e4 05 3e c6 20 ca 3d 90 4c 6f bd
       -0.00063990057 0.13075326 0.09869532 -0.058422625
000190 91 6e be bd 0e bb db 3d 82 fa cc 3d 06 5f f8 3d
       -0.092984326 0.10729037 0.10008718 0.12127499
0001a0 af 84 2d 3e e7 81 bf bd 10 ec 73 bc 57 de 3c 3e
       0.16945146 -0.09350949 -0.014887825 0.18444191
0001b0 35 cd 90 bd 4a b1 d6 3d e8 ed 87 3c 80 ac 49 3c
       -0.0707039 0.10483034 0.016592935 0.012309194
0001c0 7d 56 42 be fc 10 6b bd 4b 28 3a 3e d6 f5 14 be
       -0.18978305 -0.057389244 0.18179433 -0.14546904
0001d0 64 0f 15 be c5 3b 0b 3e 30 6e 5a bc 9a 08 3a be
       -0.14556652 0.13597019 -0.013331935 -0.18167344
0001e0 fc a8 03 3d 59 32 3f 3e d4 a6 01 3d fe 66 38 be
       0.032143578 0.1867155 0.03165324 -0.18008038
0001f0 0c 0b 3e be f0 83 d7 bc d0 03 38 bd 86 80 ce 3d
       -0.18558902 -0.02630803 -0.04492551 0.10083108
000200 63 b0 0f be 17 45 0d be 80 5a d6 3c ac 0f 74 3d
       -0.1403213 -0.13795887 0.0261662 0.05958526
000210 54 d1 93 bd 98 92 fb 3c b8 87 3f be 08 72 0f bd
       -0.072176605 0.03070955 -0.18704116 -0.035020858
000220 46 27 f4 3d 7e b7 99 3d b9 6c 2c 3e 08 ac eb 3c
       0.11921553 0.075057015 0.1683835 0.028768554
000230 fd 3a 28 be 38 36 ce bc be 63 c6 3d 1e 21 ef 3d
       -0.16428752 -0.025172338 0.09686993 0.116762385
000240 07 e0 b5 bd e0 32 f1 bb 1a 93 9c 3d 16 0e 1b be
       -0.088806204 -0.007360801 0.07645245 -0.15142092
000250 94 2e 08 bd 20 e4 84 bc 4f c0 39 3e 02 28 e3 3d
       -0.033247545 -0.01622206 0.18139766 0.11091615
000260 86 1e 3d be 00 e5 b1 bb 6e 33 34 be 40 97 86 3b
       -0.18468675 -0.0054289103 -0.17597744 0.004107386
000270 38 ef dc bc 11 82 a9 bd 85 81 bf bd 0a cb 2e be
       -0.026969537 -0.08276761 -0.09350876 -0.17069641
000280 00 47 0d be 00 86 78 bd
       -0.13796616 -0.060674667

detector.conv1.bias f4 [6]
000000 40 df c0 bc 80 2f dc bb 73 da 06 3e 39 e6 16 3e
       -0.023543954 -0.0067195296 0.1316927 0.1473626
000010 b8 ba 63 bd 78 b7 b5 3c
       -0.05559799 0.022182211

detector.conv1_bn.weight f4 [6]
000000 00 00 80 3f 00 00 80 3f 00 00 80 3f 00 00 80 3f
       1.0 1.0 1.0 1.0
000010 00 00 80 3f 00 00 80 3f
       1.0 1.0

detector.conv1_bn.bias f4 [6]
000000 00 00 00 00 00 00 00 00 00 00 00 00 00 00 00 00
       0.0 0.0 0.0 0.0
000010 00 00 00 00 00 00 00 00
       0.0 0.0

detector.conv1_bn.running_mean f4 [6]
000000 00 00 00 00 00 00 00 00 00 00 00 00 00 00 00 00
       0.0 0.0 0.0 0.0
000010 00 00 00 00 00 00 00 00
       0.0 0.0

detector.conv1_bn.running_var f4 [6]
000000 00 00 80 3f 00 00 80 3f 00 00 80 3f 00 00 80 3f
       1.0 1.0 1.0 1.0
000010 00 00 80 3f 00 00 80 3f
       1.0 1.0
